…
ed":true},"execution_count":126,"outputs":[]},{"cell_type":"code","source":"model.train()","metadata":{"execution":{"iopub.status.busy":"2023-07-29T03:06:28.814805Z","iopub.execute_input":"2023-07-29T03:06:28.815456Z","iopub.status.idle":"2023-07-29T03:06:28.826360Z","shell.execute_reply.started":"2023-07-29T03:06:28.815416Z","shell.execute_reply":"2023-07-29T03:06:28.825301Z"},"trusted":true},"execution_count":127,"outputs":[{"execution_count":127,"output_type":"execute_result","data":{"text/plain":"bert_compare(\n  (bert): BertModel(\n    (embeddings): BertEmbeddings(\n      (word_embeddings): Embedding(30522, 768, padding_idx=0)\n      (position_embeddings): Embedding(512, 768)\n      (token_type_embeddings): Embedding(2, 768)\n      (LayerNorm): LayerNorm((768,), eps=1e-12, elementwise_affine=True)\n      (dropout): Dropout(p=0.1, inplace=False)\n    )\n    (encoder): BertEncoder(\n      (layer): ModuleList(\n        (0-11): 12 x BertLayer(\n          (attention): BertAttention(\n            (self): BertSelfAttention(\n              (query): Linear(in_features=768, out_features=768, bias=True)\n              (key): Linear(in_features=768, out_features=768, bias=True)\n              (value): Linear(in_features=768, out_features=768, bias=True)\n              (dropout): Dropout(p=0.1, inplace=False)\n            )\n            (output): BertSelfOutput(\n              (dense): Linear(in_features=768, out_features=768, bias=True)\n              (LayerNorm): LayerNorm((768,), eps=1e-12, elementwise_affine=True)\n              (dropout): Dropout(p=0.1, inplace=False)\n            )\n          )\n          (intermediate): BertIntermediate(\n            (dense): Linear(in_features=768, out_features=3072, bias=True)\n            (intermediate_act_fn): GELUActivation()\n          )\n          (output): BertOutput(\n            (dense): Linear(in_features=3072, out_features=768, bias=True)\n            (LayerNorm): LayerNorm((768,), eps=1e-12, elementwise_affine=True)\n            (dropout): Dropout(p=0.1, inplace=False)\n          )\n        )\n      )\n    )\n    (pooler): BertPooler(\n      (dense): Linear(in_features=768, out_features=768, bias=True)\n      (activation): Tanh()\n    )\n  )\n  (Linear): Linear(in_features=768, out_features=30, bias=True)\n  (elu): ELU(alpha=1.0)\n  (Linear2): Linear(in_features=7670, out_features=1, bias=True)\n  (cnn1): Conv1d(30, 10, kernel_size=(2,), stride=(1,))\n  (relu): ReLU()\n)"},"metadata":{}}]},{"cell_type":"code","source":"model.bert.train()","metadata":{"execution":{"iopub.status.busy":"2023-07-29T03:06:29.113997Z","iopub.execute_input":"2023-07-29T03:06:29.114348Z","iopub.status.idle":"2023-07-29T03:06:29.124572Z","shell.execute_reply.started":"2023-07-29T03:06:29.114311Z","shell.execute_reply":"2023-07-29T03:06:29.123549Z"},"trusted":true},"execution_count":128,"outputs":[{"execution_count":128,"output_type":"execute_result","data":{"text/plain":"BertModel(\n  (embeddings): BertEmbeddings(\n    (word_embeddings): Embedding(30522, 768, padding_idx=0)\n    (position_embeddings): Embedding(512, 768)\n    (token_type_embeddings): Embedding(2, 768)\n    (LayerNorm): LayerNorm((768,), eps=1e-12, elementwise_affine=True)\n    (dropout): Dropout(p=0.1, inplace=False)\n  )\n  (encoder): BertEncoder(\n    (layer): ModuleList(\n      (0-11): 12 x BertLayer(\n        (attention): BertAttention(\n          (self): BertSelfAttention(\n            (query): Linear(in_features=768, out_features=768, bias=True)\n            (key): Linear(in_features=768, out_features=768, bias=True)\n            (value): Linear(in_features=768, out_features=768, bias=True)\n            (dropout): Dropout(p=0.1, inplace=False)\n          )\n          (output): BertSelfOutput(\n            (dense): Linear(in_features=768, out_features=768, bias=True)\n            (LayerNorm): LayerNorm((768,), eps=1e-12, elementwise_affine=True)\n            (dropout): Dropout(p=0.1, inplace=False)\n          )\n        )\n        (intermediate): BertIntermediate(\n          (dense): Linear(in_features=768, out_features=3072, bias=True)\n          (intermediate_act_fn): GELUActivation()\n        )\n        (output): BertOutput(\n          (dense): Linear(in_features=3072, out_features=768, bias=True)\n          (LayerNorm): LayerNorm((768,), eps=1e-12, elementwise_affine=True)\n          (dropout): Dropout(p=0.1, inplace=False)\n        )\n      )\n    )\n  )\n  (pooler): BertPooler(\n    (dense): Linear(in_features=768, out_features=768, bias=True)\n    (activation): Tanh()\n  )\n)"},"metadata":{}}]},{"cell_type":"code","source":"for i in range(10):\n  loop=tqdm(train,leave=True)\n  for x,y in loop :\n        optim.zero_grad()\n        out=model(x)\n        l=loss(out,y.unsqueeze(-1).float())\n        l.backward()\n        optim.step()\n        loop.set_description(f'Epoch {i}')\n        loop.set
…
